saved_models/model_002.pt (torch_old, 253357 bytes, 4 tensors)

S f4 [207, 207]
000000 00 00 80 3f 00 00 80 3f 00 00 80 3f 00 00 80 3f
       1.0 1.0 1.0 1.0
000010 00 00 80 3f 00 00 80 3f 00 00 80 3f 00 00 80 3f
       1.0 1.0 1.0 1.0
000020 00 00 80 3f 00 00 80 3f 00 00 80 3f 00 00 80 3f
       1.0 1.0 1.0 1.0
000030 00 00 80 3f 00 00 80 3f 00 00 80 3f 00 00 80 3f
       1.0 1.0 1.0 1.0
000040 00 00 80 3f 00 00 80 3f 00 00 80 3f 00 00 80 3f
       1.0 1.0 1.0 1.0
000050 00 00 80 3f 00 00 80 3f 00 00 80 3f 00 00 80 3f
       1.0 1.0 1.0 1.0
000060 00 00 80 3f 00 00 80 3f 00 00 80 3f 00 00 80 3f
       1.0 1.0 1.0 1.0
000070 00 00 80 3f 00 00 80 3f 00 00 80 3f 00 00 80 3f
       1.0 1.0 1.0 1.0
000080 00 00 80 3f 00 00 80 3f 00 00 80 3f 00 00 80 3f
       1.0 1.0 1.0 1.0
000090 00 00 80 3f 00 00 80 3f 00 00 80 3f 00 00 80 3f
       1.0 1.0 1.0 1.0
0000a0 00 00 80 3f 00 00 80 3f 00 00 80 3f 00 00 80 3f
       1.0 1.0 1.0 1.0
0000b0 00 00 80 3f 00 00 80 3f 00 00 80 3f 00 00 80 3f
       1.0 1.0 1.0 1.0
0000c0 00 00 80 3f 00 00 80 3f 00 00 80 3f 00 00 80 3f
       1.0 1.0 1.0 1.0
0000d0 00 00 80 3f 00 00 80 3f 00 00 80 3f 00 00 80 3f
       1.0 1.0 1.0 1.0
0000e0 00 00 80 3f 00 00 80 3f 00 00 80 3f 00 00 80 3f
       1.0 1.0 1.0 1.0
0000f0 00 00 80 3f 00 00 80 3f 00 00 80 3f 00 00 80 3f
       1.0 1.0 1.0 1.0
000100 00 00 80 3f 00 00 80 3f 00 00 80 3f 00 00 80 3f
       1.0 1.0 1.0 1.0
000110 00 00 80 3f 00 00 80 3f 00 00 80 3f 00 00 80 3f
       1.0 1.0 1.0 1.0
000120 00 00 80 3f 00 00 80 3f 00 00 80 3f 00 00 80 3f
       1.0 1.0 1.0 1.0
000130 00 00 80 3f 00 00 80 3f 00 00 80 3f 00 00 80 3f
       1.0 1.0 1.0 1.0
000140 00 00 80 3f 00 00 80 3f 00 00 80 3f 00 00 80 3f
       1.0 1.0 1.0 1.0
000150 00 00 80 3f 00 00 80 3f 00 00 80 3f 00 00 80 3f
       1.0 1.0 1.0 1.0
000160 00 00 80 3f 00 00 80 3f 00 00 80 3f 00 00 80 3f
       1.0 1.0 1.0 1.0
000170 00 00 80 3f 00 00 80 3f 00 00 80 3f 00 00 80 3f
       1.0 1.0 1.0 1.0
000180 00 00 80 3f 00 00 80 3f 00 00 80 3f 00 00 80 3f
       1.0 1.0 1.0 1.0
000190 00 00 80 3f 00 00 80 3f 00 00 80 3f 00 00 80 3f
       1.0 1.0 1.0 1.0
0001a0 00 00 80 3f 00 00 80 3f 00 00 80 3f 00 00 80 3f
       1.0 1.0 1.0 1.0
0001b0 00 00 80 3f 00 00 80 3f 00 00 80 3f 00 00 80 3f
       1.0 1.0 1.0 1.0
0001c0 00 00 80 3f 00 00 80 3f 00 00 80 3f 00 00 80 3f
       1.0 1.0 1.0 1.0
0001d0 00 00 80 3f 00 00 80 3f 00 00 80 3f 00 00 80 3f
       1.0 1.0 1.0 1.0
0001e0 00 00 80 3f 00 00 80 3f 00 00 80 3f 00 00 80 3f
       1.0 1.0 1.0 1.0
0001f0 00 00 80 3f 00 00 80 3f 00 00 80 3f 00 00 80 3f
       1.0 1.0 1.0 1.0
000200 00 00 80 3f 00 00 80 3f 00 00 80 3f 00 00 80 3f
       1.0 1.0 1.0 1.0
000210 00 00 80 3f 00 00 80 3f 00 00 80 3f 00 00 80 3f
       1.0 1.0 1.0 1.0
000220 00 00 80 3f 00 00 80 3f 00 00 80 3f 00 00 80 3f
       1.0 1.0 1.0 1.0
000230 00 00 80 3f 00 00 80 3f 00 00 80 3f 00 00 80 3f
       1.0 1.0 1.0 1.0
000240 00 00 80 3f 00 00 80 3f 00 00 80 3f 00 00 80 3f
       1.0 1.0 1.0 1.0
000250 00 00 80 3f 00 00 80 3f 00 00 80 3f 00 00 80 3f
       1.0 1.0 1.0 1.0
000260 00 00 80 3f 00 00 80 3f 00 00 80 3f 00 00 80 3f
       1.0 1.0 1.0 1.0
000270 00 00 80 3f 00 00 80 3f 00 00 80 3f 00 00 80 3f
       1.0 1.0 1.0 1.0
000280 00 00 80 3f 00 00 80 3f 00 00 80 3f 00 00 80 3f
       1.0 1.0 1.0 1.0
000290 00 00 80 3f 00 00 80 3f 00 00 80 3f 00 00 80 3f
       1.0 1.0 1.0 1.0
0002a0 00 00 80 3f 00 00 80 3f 00 00 80 3f 00 00 80 3f
       1.0 1.0 1.0 1.0
0002b0 00 00 80 3f 00 00 80 3f 00 00 80 3f 00 00 80 3f
       1.0 1.0 1.0 1.0
0002c0 00 00 80 3f 00 00 80 3f 00 00 80 3f 00 00 80 3f
       1.0 1.0 1.0 1.0
0002d0 00 00 80 3f 00 00 80 3f 00 00 80 3f 00 00 80 3f
       1.0 1.0 1.0 1.0
0002e0 00 00 80 3f 00 00 80 3f 00 00 80 3f 00 00 80 3f
       1.0 1.0 1.0 1.0
0002f0 00 00 80 3f 00 00 80 3f 00 00 80 3f 00 00 80 3f
       1.0 1.0 1.0 1.0
000300 00 00 80 3f 00 00 80 3f 00 00 80 3f 00 00 80 3f
       1.0 1.0 1.0 1.0
000310 00 00 80 3f 00 00 80 3f 00 00 80 3f 00 00 80 3f
       1.0 1.0 1.0 1.0
000320 00 00 80 3f 00 00 80 3f 00 00 80 3f 00 00 80 3f
       1.0 1.0 1.0 1.0
000330 00 00 80 3f 00 00 80 3f 00 00 80 3f 00 00 80 3f
       1.0 1.0 1.0 1.0
000340 00 00 80 3f 00 00 80 3f 00 00 80 3f 00 00 80 3f
       1.0 1.0 1.0 1.0
000350 00 00 80 3f 00 00 80 3f 00 00 80 3f 00 00 80 3f
       1.0 1.0 1.0 1.0
000360 00 00 80 3f 00 00 80 3f 00 00 80 3f 00 00 80 3f
       1.0 1.0 1.0 1.0
000370 00 00 80 3f 00 00 80 3f 00 00 80 3f 00 00 80 3f
       1.0 1.0 1.0 1.0
000380 00 00 80 3f 00 00 80 3f 00 00 80 3f 00 00 80 3f
       1.0 1.0 1.0 1.0
000390 00 00 80 3f 00 00 80 3f 00 00 80 3f 00 00 80 3f
       1.0 1.0 1.0 1.0
0003a0 00 00 80 3f 00 00 80 3f 00 00 80 3f 00 00 80 3f
       1.0 1.0 1.0 1.0
0003b0 00 00 80 3f 00 00 80 3f 00 00 80 3f 00 00 80 3f
       1.0 1.0 1.0 1.0
0003c0 00 00 80 3f 00 00 80 3f 00 00 80 3f 00 00 80 3f
       1.0 1.0 1.0 1.0
0003d0 00 00 80 3f 00 00 80 3f 00 00 80 3f 00 00 80 3f
       1.0 1.0 1.0 1.0
0003e0 00 00 80 3f 00 00 80 3f 00 00 80 3f 00 00 80 3f
       1.0 1.0 1.0 1.0
0003f0 00 00 80 3f 00 00 80 3f 00 00 80 3f 00 00 80 3f
       1.0 1.0 1.0 1.0

gc1.weight f4 [1, 100]
000000 e0 26 76 bd 03 9d 39 bd 40 e0 fc bc 94 72 e5 bc
       -0.060095668 -0.045315754 -0.03086865 -0.028008737
000010 8c 36 c3 bc 16 68 03 3d a5 24 c0 3d 22 bd 47 3d
       -0.02382972 0.032081686 0.093819894 0.048764355
000020 a8 f3 5d 3c 08 57 e7 bc 70 1b 72 3c 1c de e0 3c
       0.013546862 -0.028239742 0.014777049 0.02744966
000030 94 0d ca bc a0 74 bf 3c 90 9c cc bd 74 67 a1 3c
       -0.024664678 0.02337104 -0.099907994 0.01970265
000040 20 f1 e4 bb 4c 68 ad 3c f0 e9 02 3c a2 07 a3 bd
       -0.006986752 0.021167897 0.007990345 -0.0796044
000050 65 d2 c7 3d c7 65 1b bd 2f 85 88 3d 6c 20 a5 bc
       0.097569264 -0.03793886 0.06666028 -0.020157062
000060 1a e7 87 bd 30 10 3e 3c ed 1b 86 bd e8 61 af 3c
       -0.06635876 0.011600539 -0.06548295 0.02140899
000070 b5 a1 86 bd 70 48 42 bd 6e 9e 7e 3d a7 6b 57 bd
       -0.06573812 -0.047432363 0.06216281 -0.0525929
000080 2d f2 2b bd d7 ab aa 3d 0c 88 de bc 6e 4d 3d 3d
       -0.041979004 0.08333557 -0.027164482 0.04621642
000090 ed 7b 83 bd e4 a7 86 bd 4a 7e 7f 3d 19 80 bd 3d
       -0.06420121 -0.06574991 0.062376298 0.09252948
0000a0 33 62 9e bd eb 23 b7 3d 1d df ad bd 9a c9 04 3d
       -0.07733574 0.08942398 -0.08489821 0.032418825
0000b0 13 8d c4 3d 50 7e 35 bc fb 21 cc 3d 16 a9 07 bd
       0.0959722 -0.0110774785 0.09967419 -0.033120237
0000c0 40 a0 da bc 28 ee fe bc 40 73 11 bd d2 4b 60 3d
       -0.026687741 -0.031119421 -0.0355103 0.054759808
0000d0 10 c4 4e bc b6 e7 38 3d 5a 7f 1e 3d 25 52 94 bd
       -0.012619987 0.04514285 0.03869567 -0.0724223
0000e0 e4 c8 f7 3c f7 25 50 bd 4c 50 d5 3c 5a 99 34 3d
       0.03024716 -0.050817456 0.026039265 0.04409156
0000f0 53 85 ad bd 98 4b 64 3c 40 ac 7f bb 2e 0e 92 bd
       -0.08472695 0.013934039 -0.003901258 -0.07131611
000100 89 bb 9b 3d ad 06 97 3d 96 3b 75 3d 18 65 87 bc
       0.07604129 0.0737432 0.05987128 -0.016527697
000110 58 40 4b 3c 38 3b a5 3c b8 2f 93 bc 70 01 21 bd
       0.012405477 0.02016984 -0.01796709 -0.03930801
000120 5d 78 71 bd 49 0e 81 3d 5f 16 a9 3d b0 02 6f 3c
       -0.058952678 0.06301553 0.0825622 0.014588043
000130 60 4a ad bd b4 67 da 3c 75 7e 9b bd b3 22 aa 3d
       -0.084614515 0.026660778 -0.07592479 0.083073996
000140 dd 5e 86 3d 2c d3 0a bd c6 82 57 3d 20 94 9d bd
       0.065610625 -0.033892795 0.05261495 -0.07694268
000150 24 75 dc 3c 06 cf 03 bd 21 64 c2 3d 98 c7 9a 3c
       0.026911326 -0.032179855 0.09491754 0.018894002
000160 50 9b 2c 3c 66 aa 7e 3d 10 4b 25 bd 8c b6 9e 3c
       0.010535076 0.062174223 -0.04035479 0.019374155
000170 ea e4 35 bd 25 d0 ad 3d 7c 06 d9 3c 08 48 a9 bd
       -0.044407763 0.08486966 0.02649235 -0.08265692
000180 d8 2a 9e bd 6d 42 c6 bd 20 f1 1e bd e3 4c 36 bd
       -0.077230155 -0.096806385 -0.038804173 -0.04450692

gc2.weight f4 [100, 200]
000000 9a a1 75 bd 4e 0d 2b 3d 3b f6 8a bd 4c 36 4b 3d
       -0.05996857 0.041760735 -0.06785246 0.04961233
000010 a0 d7 00 bb 64 78 46 3d 2c b6 b1 3c 04 4b a8 3c
       -0.0019659773 0.048454657 0.021693312 0.020543583
000020 9a 72 49 bd 13 cd 85 3d 2e 47 eb bc f2 12 73 3d
       -0.04918156 0.065332554 -0.028720465 0.05934424
000030 14 25 25 3d b0 0f df bb a1 3a 38 bd de 0f 19 3d
       0.040318564 -0.00680729 -0.044977788 0.037368648
000040 44 b6 3c 3d ee e5 60 bd 95 15 8b 3d 1c c8 b4 3c
       0.04607226 -0.054906778 0.06791226 0.022068076
000050 14 80 18 3d 46 e6 56 bd b6 41 28 3d 07 1a 82 bd
       0.03723152 -0.0524657 0.04107829 -0.063526206
000060 9c f6 e4 bc a2 16 6b 3d 48 df 3a 3d c1 07 1e bd
       -0.027949624 0.05739463 0.045623094 -0.038581613
000070 d0 07 8f 3c d5 36 85 bd cc 12 87 bc ec 7c 1c 3d
       0.01745978 -0.06504599 -0.016488455 0.038205072
000080 1c 1e 8d 3c c0 5d 84 bb 46 07 19 bd 56 5f 2d 3d
       0.017226271 -0.004039496 -0.037360452 0.042327248
000090 d2 87 53 3d 94 a2 dc bc c8 8b 40 bc 06 8c 5c 3d
       0.0516432 -0.026932992 -0.011752076 0.053844474
0000a0 96 91 81 bc fa d2 1e bd 03 ba 64 bd 94 85 90 3c
       -0.015816491 -0.03877542 -0.055841457 0.01764182
0000b0 c8 fa f1 3c 80 f0 64 3a e5 c3 04 bd 38 45 b9 3c
       0.029538527 0.0008733347 -0.032413382 0.022616014
0000c0 00 a1 36 3d 20 c4 f7 bb 08 e9 86 bd c0 39 15 3c
       0.044587135 -0.0075612217 -0.06587416 0.009108007
0000d0 56 e6 71 3d 00 78 ff bb 72 6d 60 bd 9b 75 85 3d
       0.059057556 -0.0077962875 -0.054791875 0.06516572
0000e0 b2 bf 80 bc 5e 25 65 bd 20 64 f8 3b 3a c2 53 3d
       -0.015716407 -0.05594384 0.007580295 0.0516989
0000f0 e7 98 8a bd 30 42 69 bc 1d 64 8c bd 48 c9 bb 3c
       -0.06767445 -0.014236972 -0.068550326 0.022923127
000100 a6 77 a4 bc 7e 4e 6c 3d 71 2d 84 3d aa 37 38 3d
       -0.020076584 0.057692043 0.0645398 0.04497496
000110 64 69 47 bd f4 e2 d6 3c ea c5 56 bd b6 9f 69 3d
       -0.048684493 0.026231267 -0.05243484 0.057037078
000120 90 ad 35 bc 33 80 6d bd a0 9e 88 bb 9e ab 63 3d
       -0.011088744 -0.05798359 -0.0041693 0.05558359
000130 40 05 95 3a a1 af 81 3d 14 01 ae bc ca 14 b9 bc
       0.0011369362 0.06332327 -0.021240748 -0.02259292
000140 40 5e 4a 3c f2 d7 33 3d 04 43 23 bd 56 6a 5f 3d
       0.0123515725 0.043907113 -0.039858833 0.05454477
000150 00 60 26 bb ba 01 8e bd 3a 23 35 bd 80 3a 2d 3b
       -0.002538681 -0.06933923 -0.044223048 0.0026432574
000160 8a f2 d6 bc 0a 34 5d bd 48 86 4d 3d 28 68 ea bc
       -0.026238699 -0.054004706 0.05017689 -0.028614119
000170 f6 52 f2 bc 60 66 50 3b c0 e6 5e 3c 59 ed 88 3d
       -0.029580574 0.0031799302 0.01360482 0.066858955
000180 e7 79 1b bd 40 1a 87 3c 9e 33 43 3d ab 13 8f 3d
       -0.037958052 0.01649201 0.047656648 0.06986173
000190 ba f4 5d 3d 60 f8 8d 3b ed fc 77 bd ea 79 dd bc
       0.054188468 0.004332587 -0.060543943 -0.027035672
0001a0 3c 30 75 bd 60 c7 0f 3d cc 18 ee 3c 38 17 2b bd
       -0.059860453 0.03510225 0.029064558 -0.04177019
0001b0 14 0f 5a bc 66 d7 83 bd 80 23 60 3b ed 46 08 bd
       -0.013309259 -0.06437568 0.0034200847 -0.033270765
0001c0 7b 15 75 bd 52 62 30 3d f4 10 10 bc 50 16 87 bb
       -0.05983494 0.043062516 -0.008793104 -0.004122533
0001d0 5c 74 7f bd a0 8b 0b bb ce d1 0c 3d 1c 0b 8c bd
       -0.06236683 -0.002129294 0.034379773 -0.068380564
0001e0 fc 47 8e 3c 7a 07 f9 bc 80 5b 1f ba 9a f8 5c 3d
       0.01736831 -0.030399073 -0.0006079003 0.053948022
0001f0 c9 81 1d bd 6a bc 5e 3d f0 51 0b 3d 26 8a 50 bd
       -0.03845385 0.054378904 0.03401369 -0.050913
000200 da bd c8 bc 15 06 8f bd cb bf 39 bd 31 59 85 3d
       -0.02450459 -0.06983582 -0.045348924 0.065111525
000210 6c b9 0b 3d 48 5a 84 bd a0 b7 0f 3c 4a 2a 73 3d
       0.03411238 -0.06462532 0.008771807 0.059366502
000220 e7 3e 8f 3d f8 3a 5b bc c0 fe 92 3a 1a 14 33 3d
       0.069944195 -0.013380758 0.0011214837 0.043720342
000230 6b 27 89 bd d4 34 46 bd dc 49 34 3d c4 50 13 bd
       -0.066969715 -0.048390225 0.04401575 -0.035965696
000240 4e 82 6b 3d c0 34 e8 3a a0 c3 7b bb b2 c8 b7 bc
       0.057497315 0.0017715916 -0.0038416162 -0.022434566
000250 40 de 4a 3c da e2 f6 bc 80 1d 06 3d 5c fa c7 3c
       0.01238209 -0.030137468 0.032742977 0.024411373
000260 40 c4 a6 ba 00 e9 da 39 3a a6 46 3d b2 9f fd bc
       -0.0012723282 0.000417538 0.04849837 -0.030959938
000270 b8 c0 52 3c 44 df f7 3c c4 5f fb 3c 30 53 ce 3c
       0.012863331 0.030257829 0.030685313 0.025186151
000280 bc 30 5e bc 9f 41 1f bd 30 ef aa 3c fe 7e 6a bd
       -0.013561424 -0.03888094 0.020866007 -0.057250015
000290 78 b7 b8 bc d0 bd 01 3d 98 0d 0e 3c f0 ba 60 3c
       -0.022548422 0.03167516 0.008670233 0.013716444
0002a0 80 18 17 3b 20 0a ee 3c 9f 82 84 3d 00 a2 fc ba
       0.0023055375 0.029057562 0.064702265 -0.0019274354
0002b0 66 eb 92 bc 01 98 8b 3d 34 49 19 3d 5b 71 86 3d
       -0.017934512 0.06816102 0.037423328 0.065645896
0002c0 1b fe 03 bd 90 ff aa 3b d8 0d 5f bd 80 4e b7 3c
       -0.032224756 0.0052184537 -0.05445656 0.022376299
0002d0 b0 83 95 bb e4 e9 14 bc 1e 59 35 bd b6 bc f9 bc
       -0.0045628175 -0.009088967 -0.044274442 -0.030485492
0002e0 c0 21 ce 3b b4 5b 81 bc f2 95 d2 bc 98 8c 8d bd
       0.0062906444 -0.015790798 -0.025706265 -0.06911582
0002f0 50 b3 f9 3b 20 94 71 3b b0 23 0b 3c c4 d7 88 3c
       0.0076202527 0.003686197 0.008492395 0.016704448
000300 f8 7f 62 3c de 77 b4 bc 34 82 90 bc 90 5c 85 3c
       0.013824455 -0.022029813 -0.01764021 0.016279489
000310 f2 04 88 bd f0 36 7e 3c a1 88 44 bd a0 3c e6 bb
       -0.06641568 0.015516028 -0.047981862 -0.00702627
000320 26 9d 3c bd 47 6e 74 bd 04 48 0c bc 52 77 21 3d
       -0.046048306 -0.05967548 -0.008562092 0.039420433
000330 10 50 4c 3c 40 0c 90 bb 28 0d c9 3c fe 55 68 3d
       0.01247026 -0.0043959916 0.024542406 0.056722634
000340 ec 0c 04 bd 40 99 f0 bb d0 32 9b 3c d8 ef 4c bd
       -0.032238886 -0.0073424876 0.018945128 -0.05003342
000350 82 76 0c 3d 77 ed 83 bd 9b 80 88 bd dc 09 d3 bc
       0.034292705 -0.06441777 -0.066651545 -0.025761537
000360 ac 6b 24 bc f8 7a 8d 3c da 20 58 bd dd 66 32 bd
       -0.010035437 0.01727055 -0.052765705 -0.04355513
000370 ac 5d 59 3d 5f 0d 8e bd 8a e7 b0 bc 27 e4 07 bd
       0.053067848 -0.06936144 -0.021594781 -0.033176567
000380 4b 6a 86 3d f0 9d c1 bb a0 31 74 bd c4 89 84 bd
       0.065632425 -0.00590872 -0.05961764 -0.06471589
000390 a8 34 34 bd 40 9c 50 3c 00 c5 a1 3c 6c 46 16 3d
       -0.04399553 0.012732565 0.019747257 0.036688253
0003a0 42 7a 86 bc 6b f8 00 bd 4d 49 87 bd c0 a8 9f ba
       -0.016415719 -0.03148691 -0.06605778 -0.0012181029
0003b0 0c 47 3f 3d d3 d1 2f bd c9 a9 38 bd a6 e4 75 bd
       0.046698615 -0.042924713 -0.045083795 -0.06003251
0003c0 a8 83 3b 3c 32 1b 5b bd 05 19 8f bd e6 eb 21 3d
       0.0114449635 -0.053492732 -0.06987194 0.03953161
0003d0 1b 4a 78 bd bd 5b 81 bd 34 72 dd 3c 38 5b d6 bc
       -0.060617547 -0.06316326 0.027031995 -0.026166543
0003e0 84 f9 3d bd 78 85 98 bc 64 89 f1 3c 30 63 b2 bc
       -0.046380535 -0.01861833 0.029484458 -0.021775812
0003f0 6d 2f 85 3d e0 3d b1 3c c4 6f d5 3c f6 ae 46 3d
       0.065031864 0.02163595 0.02605427 0.0485067

gc3.weight f4 [200, 1]
000000 40 fe 31 be e0 03 8b 3e 90 72 4d be 00 5c 92 3e
       -0.17382145 0.27151394 -0.20063233 0.28585815
000010 0c 98 36 bf b0 af 20 3e 76 27 3f bf c4 1f ba be
       -0.71325755 0.1569202 -0.7466959 -0.3635236
000020 52 69 69 bf 78 28 38 3e 40 5d ec bd 34 85 c0 3e
       -0.9117633 0.17984188 -0.115412235 0.37601626
000030 68 ff 39 3e be 7b 30 3f 54 4b 29 bf 00 42 66 be
       0.18163836 0.68938816 -0.66130567 -0.22486115
000040 60 16 ee bd ea aa 25 3f 40 f5 d5 3c 6e b5 49 3f
       -0.116253614 0.6471392 0.02611792 0.78792465
000050 78 50 56 3e 68 b5 cd 3e 50 92 f0 3e 40 50 d9 bc
       0.20929134 0.40177464 0.46986628 -0.026527524
000060 9c 52 21 bf fe 64 04 bf 50 90 43 3e 92 fe 46 3f
       -0.63016677 -0.517166 0.1909802 0.77732193
000070 b0 ea 69 3e 20 06 f3 bd fc bb 2f 3f 30 a9 b7 be
       0.22843432 -0.118664026 0.68646216 -0.35871267
000080 b8 b0 6f 3f 66 d5 58 bf 56 5a 18 3f e4 b7 14 bf
       0.93629026 -0.8470062 0.5951284 -0.58093095
000090 2e 24 72 3f 7c 0a 09 3f 60 41 41 bf 40 e7 e5 3d
       0.94586456 0.5353162 -0.7549038 0.11225748
0000a0 f0 79 80 be 40 1e fd bc de 12 2d bf b8 05 bd be
       -0.2509303 -0.030898213 -0.67606914 -0.36918426
0000b0 82 49 55 bf 06 b4 50 bf 38 1c 5c 3e 40 ff be 3c
       -0.8331529 -0.81524694 0.2149514 0.023315072
0000c0 d4 cf d8 be 0c a3 d0 3e a8 c6 ac 3e 9c dc a4 be
       -0.4234606 0.40749395 0.33745313 -0.32199562
0000d0 80 aa 28 3f c4 2c bb be 18 8b 99 3e 50 87 94 3d
       0.6588516 -0.3655759 0.29988933 0.07252371
0000e0 a8 c0 65 be 82 73 76 bf 40 30 46 bf 24 90 62 bf
       -0.22436774 -0.9627 -0.77417374 -0.8850119
0000f0 04 f0 c9 be 5c 73 66 3f a4 11 0e 3f 6c c0 05 3f
       -0.3944093 0.90019774 0.5549567 0.5224674
000100 64 48 a0 3e 60 42 0e be a0 70 74 3e a4 ef e9 3e
       0.3130523 -0.13892508 0.23871088 0.45690644
000110 08 a6 53 3f 10 5a a7 3d 2c 78 8a 3e a4 20 0f bf
       0.8267522 0.08171475 0.2704481 -0.5590918
000120 08 55 34 bf a0 fd d9 3e 44 9b 7f 3f ec 9b 98 3e
       -0.7044225 0.42576313 0.9984629 0.2980646
000130 56 77 0c bf 08 70 ce be 30 24 b2 3e ae 93 2f 3f
       -0.5486959 -0.40319848 0.34793234 0.68584716
000140 c0 ad 84 3d b8 bb 24 be 94 29 7b bf 94 d6 81 be
       0.06478453 -0.16087234 -0.9811032 -0.25359023
000150 66 04 08 3f e6 a3 24 3f 12 51 7a bf 18 52 71 bf
       0.5313171 0.6431259 -0.97779953 -0.9426589
000160 18 53 68 3f 3a 60 77 3f fc 3f e1 3e b8 37 23 be
       0.9075179 0.96631205 0.4399413 -0.15939224
000170 0e 7d 6e 3f 58 b0 fb 3e e4 35 da be 62 ff 71 3f
       0.9315957 0.49157977 -0.4261924 0.9453031
000180 a8 5f 33 3e c4 69 21 bf 14 fa 9b 3e 12 aa 43 bf
       0.17516959 -0.6305201 0.30464232 -0.7643138
000190 6c 37 9b be 28 10 1e 3e 00 27 dc bd 7e 20 39 bf
       -0.3031572 0.1543585 -0.10749626 -0.72315204
0001a0 bc 1f 61 3f e0 c0 b3 3d c2 4b 3f 3f 34 12 9c 3e
       0.8793905 0.08777022 0.7472497 0.30482638
0001b0 ec d8 0e bf ec 33 a8 3e 1e cd 07 3f a4 3d 1b 3f
       -0.55799747 0.32852113 0.5304736 0.6064093
0001c0 ea 96 20 bf aa b6 67 3f 60 ff 2d 3d 20 41 02 3e
       -0.62730277 0.905131 0.042479873 0.12720156
0001d0 e2 8c 2f bf 10 4e 00 3e c4 aa af 3e e8 9a 92 3e
       -0.68574345 0.12529778 0.3430997 0.2863381
0001e0 30 30 4b 3f 00 27 28 bd 56 e8 0f bf 94 3a 86 3e
       0.79370403 -0.04105282 -0.5621389 0.26216567
0001f0 5a a2 1b 3f f0 86 c0 3d d4 e9 e5 be 50 0f 5f 3e
       0.60794604 0.09400737 -0.4490496 0.21783185
000200 38 31 f9 3e 84 ca 0f bf 2c eb 28 bf ea 13 0f 3f
       0.48670363 -0.5616839 -0.65983844 0.5588976
000210 5a 66 1d 3f 06 7f 56 bf 80 7e 3c 3c 5a b9 45 bf
       0.614843 -0.8378757 0.011504769 -0.7723595
000220 12 4e 63 bf 00 d7 b7 3e cc 00 c8 be f2 d1 02 3f
       -0.88791 0.3590622 -0.39063108 0.511016
000230 58 da 03 be d0 29 26 3f 00 b2 67 3c cc e1 dd be
       -0.1287626 0.6490755 0.01414156 -0.43336332
000240 de 7c 4b bf a4 55 34 bf e4 a2 bf 3e 60 5e bb 3e
       -0.7948741 -0.7044318 0.37428963 0.3659544
000250 e4 64 04 3f 6a 1e 34 bf a0 49 37 3d fc cf a8 be
       0.51716447 -0.7035891 0.04474795 -0.3297118
000260 04 ee 38 3f 3e 48 40 3f ea 95 77 bf b8 12 19 3f
       0.72238183 0.7511023 -0.96713126 0.5979419
000270 00 4a 96 be 68 fc 19 be 34 3a d0 3e e2 f0 0c 3f
       -0.29353333 -0.15037692 0.40669405 0.5505506
000280 6c 4d 1b 3f 40 2f 15 3e 40 a6 55 bf ac 75 3b bf
       0.6066501 0.14568806 -0.834568 -0.7322643
000290 b4 a6 00 3f f8 75 6e 3e 58 47 ad 3e 26 83 53 3f
       0.5025437 0.23287189 0.33843493 0.8262199
0002a0 c0 fe 16 3f a4 09 1d 3f 2c 42 7d bf f8 34 85 be
       0.5898247 0.61342835 -0.98929095 -0.26016974
0002b0 9c 10 0b bf 80 19 93 3e 68 4c fe 3e d0 41 d3 bd
       -0.5432222 0.28730392 0.49667668 -0.10315287
0002c0 80 16 a9 3d 30 e4 9b bd 98 fe 68 bf 64 73 4d 3f
       0.08256245 -0.07611883 -0.9101348 0.802542
0002d0 f2 c8 1b 3f 28 1d 3f bf 80 71 ed bc 44 5c e3 3e
       0.60853493 -0.74653864 -0.028984785 0.4440633
0002e0 00 63 9e be e8 ba ac be 00 81 50 3d 78 97 b6 3e
       -0.30934906 -0.33736348 0.050904274 0.35662436
0002f0 86 61 78 3f 08 58 24 be 20 90 05 bf 10 69 b0 be
       0.9702381 -0.16049206 -0.5217304 -0.34455156
000300 82 aa 51 bf c8 8f b5 be 14 d4 59 3f 30 e3 79 3e
       -0.819008 -0.3546126 0.8508923 0.24403071
000310 30 e6 d4 3e b8 44 4b 3f 54 e9 e6 3e 5a 66 04 3f
       0.4158187 0.7940173 0.4509989 0.51718676
