saved_models/model_001.pt (torch_old, 253357 bytes, 4 tensors)

S f4 [207, 207]
000000 00 00 80 3f 00 00 80 3f 00 00 80 3f 00 00 80 3f
       1.0 1.0 1.0 1.0
000010 00 00 80 3f 00 00 80 3f 00 00 80 3f 00 00 80 3f
       1.0 1.0 1.0 1.0
000020 00 00 80 3f 00 00 80 3f 00 00 80 3f 00 00 80 3f
       1.0 1.0 1.0 1.0
000030 00 00 80 3f 00 00 80 3f 00 00 80 3f 00 00 80 3f
       1.0 1.0 1.0 1.0
000040 00 00 80 3f 00 00 80 3f 00 00 80 3f 00 00 80 3f
       1.0 1.0 1.0 1.0
000050 00 00 80 3f 00 00 80 3f 00 00 80 3f 00 00 80 3f
       1.0 1.0 1.0 1.0
000060 00 00 80 3f 00 00 80 3f 00 00 80 3f 00 00 80 3f
       1.0 1.0 1.0 1.0
000070 00 00 80 3f 00 00 80 3f 00 00 80 3f 00 00 80 3f
       1.0 1.0 1.0 1.0
000080 00 00 80 3f 00 00 80 3f 00 00 80 3f 00 00 80 3f
       1.0 1.0 1.0 1.0
000090 00 00 80 3f 00 00 80 3f 00 00 80 3f 00 00 80 3f
       1.0 1.0 1.0 1.0
0000a0 00 00 80 3f 00 00 80 3f 00 00 80 3f 00 00 80 3f
       1.0 1.0 1.0 1.0
0000b0 00 00 80 3f 00 00 80 3f 00 00 80 3f 00 00 80 3f
       1.0 1.0 1.0 1.0
0000c0 00 00 80 3f 00 00 80 3f 00 00 80 3f 00 00 80 3f
       1.0 1.0 1.0 1.0
0000d0 00 00 80 3f 00 00 80 3f 00 00 80 3f 00 00 80 3f
       1.0 1.0 1.0 1.0
0000e0 00 00 80 3f 00 00 80 3f 00 00 80 3f 00 00 80 3f
       1.0 1.0 1.0 1.0
0000f0 00 00 80 3f 00 00 80 3f 00 00 80 3f 00 00 80 3f
       1.0 1.0 1.0 1.0
000100 00 00 80 3f 00 00 80 3f 00 00 80 3f 00 00 80 3f
       1.0 1.0 1.0 1.0
000110 00 00 80 3f 00 00 80 3f 00 00 80 3f 00 00 80 3f
       1.0 1.0 1.0 1.0
000120 00 00 80 3f 00 00 80 3f 00 00 80 3f 00 00 80 3f
       1.0 1.0 1.0 1.0
000130 00 00 80 3f 00 00 80 3f 00 00 80 3f 00 00 80 3f
       1.0 1.0 1.0 1.0
000140 00 00 80 3f 00 00 80 3f 00 00 80 3f 00 00 80 3f
       1.0 1.0 1.0 1.0
000150 00 00 80 3f 00 00 80 3f 00 00 80 3f 00 00 80 3f
       1.0 1.0 1.0 1.0
000160 00 00 80 3f 00 00 80 3f 00 00 80 3f 00 00 80 3f
       1.0 1.0 1.0 1.0
000170 00 00 80 3f 00 00 80 3f 00 00 80 3f 00 00 80 3f
       1.0 1.0 1.0 1.0
000180 00 00 80 3f 00 00 80 3f 00 00 80 3f 00 00 80 3f
       1.0 1.0 1.0 1.0
000190 00 00 80 3f 00 00 80 3f 00 00 80 3f 00 00 80 3f
       1.0 1.0 1.0 1.0
0001a0 00 00 80 3f 00 00 80 3f 00 00 80 3f 00 00 80 3f
       1.0 1.0 1.0 1.0
0001b0 00 00 80 3f 00 00 80 3f 00 00 80 3f 00 00 80 3f
       1.0 1.0 1.0 1.0
0001c0 00 00 80 3f 00 00 80 3f 00 00 80 3f 00 00 80 3f
       1.0 1.0 1.0 1.0
0001d0 00 00 80 3f 00 00 80 3f 00 00 80 3f 00 00 80 3f
       1.0 1.0 1.0 1.0
0001e0 00 00 80 3f 00 00 80 3f 00 00 80 3f 00 00 80 3f
       1.0 1.0 1.0 1.0
0001f0 00 00 80 3f 00 00 80 3f 00 00 80 3f 00 00 80 3f
       1.0 1.0 1.0 1.0
000200 00 00 80 3f 00 00 80 3f 00 00 80 3f 00 00 80 3f
       1.0 1.0 1.0 1.0
000210 00 00 80 3f 00 00 80 3f 00 00 80 3f 00 00 80 3f
       1.0 1.0 1.0 1.0
000220 00 00 80 3f 00 00 80 3f 00 00 80 3f 00 00 80 3f
       1.0 1.0 1.0 1.0
000230 00 00 80 3f 00 00 80 3f 00 00 80 3f 00 00 80 3f
       1.0 1.0 1.0 1.0
000240 00 00 80 3f 00 00 80 3f 00 00 80 3f 00 00 80 3f
       1.0 1.0 1.0 1.0
000250 00 00 80 3f 00 00 80 3f 00 00 80 3f 00 00 80 3f
       1.0 1.0 1.0 1.0
000260 00 00 80 3f 00 00 80 3f 00 00 80 3f 00 00 80 3f
       1.0 1.0 1.0 1.0
000270 00 00 80 3f 00 00 80 3f 00 00 80 3f 00 00 80 3f
       1.0 1.0 1.0 1.0
000280 00 00 80 3f 00 00 80 3f 00 00 80 3f 00 00 80 3f
       1.0 1.0 1.0 1.0
000290 00 00 80 3f 00 00 80 3f 00 00 80 3f 00 00 80 3f
       1.0 1.0 1.0 1.0
0002a0 00 00 80 3f 00 00 80 3f 00 00 80 3f 00 00 80 3f
       1.0 1.0 1.0 1.0
0002b0 00 00 80 3f 00 00 80 3f 00 00 80 3f 00 00 80 3f
       1.0 1.0 1.0 1.0
0002c0 00 00 80 3f 00 00 80 3f 00 00 80 3f 00 00 80 3f
       1.0 1.0 1.0 1.0
0002d0 00 00 80 3f 00 00 80 3f 00 00 80 3f 00 00 80 3f
       1.0 1.0 1.0 1.0
0002e0 00 00 80 3f 00 00 80 3f 00 00 80 3f 00 00 80 3f
       1.0 1.0 1.0 1.0
0002f0 00 00 80 3f 00 00 80 3f 00 00 80 3f 00 00 80 3f
       1.0 1.0 1.0 1.0
000300 00 00 80 3f 00 00 80 3f 00 00 80 3f 00 00 80 3f
       1.0 1.0 1.0 1.0
000310 00 00 80 3f 00 00 80 3f 00 00 80 3f 00 00 80 3f
       1.0 1.0 1.0 1.0
000320 00 00 80 3f 00 00 80 3f 00 00 80 3f 00 00 80 3f
       1.0 1.0 1.0 1.0
000330 00 00 80 3f 00 00 80 3f 00 00 80 3f 00 00 80 3f
       1.0 1.0 1.0 1.0
000340 00 00 80 3f 00 00 80 3f 00 00 80 3f 00 00 80 3f
       1.0 1.0 1.0 1.0
000350 00 00 80 3f 00 00 80 3f 00 00 80 3f 00 00 80 3f
       1.0 1.0 1.0 1.0
000360 00 00 80 3f 00 00 80 3f 00 00 80 3f 00 00 80 3f
       1.0 1.0 1.0 1.0
000370 00 00 80 3f 00 00 80 3f 00 00 80 3f 00 00 80 3f
       1.0 1.0 1.0 1.0
000380 00 00 80 3f 00 00 80 3f 00 00 80 3f 00 00 80 3f
       1.0 1.0 1.0 1.0
000390 00 00 80 3f 00 00 80 3f 00 00 80 3f 00 00 80 3f
       1.0 1.0 1.0 1.0
0003a0 00 00 80 3f 00 00 80 3f 00 00 80 3f 00 00 80 3f
       1.0 1.0 1.0 1.0
0003b0 00 00 80 3f 00 00 80 3f 00 00 80 3f 00 00 80 3f
       1.0 1.0 1.0 1.0
0003c0 00 00 80 3f 00 00 80 3f 00 00 80 3f 00 00 80 3f
       1.0 1.0 1.0 1.0
0003d0 00 00 80 3f 00 00 80 3f 00 00 80 3f 00 00 80 3f
       1.0 1.0 1.0 1.0
0003e0 00 00 80 3f 00 00 80 3f 00 00 80 3f 00 00 80 3f
       1.0 1.0 1.0 1.0
0003f0 00 00 80 3f 00 00 80 3f 00 00 80 3f 00 00 80 3f
       1.0 1.0 1.0 1.0

gc1.weight f4 [1, 100]
000000 02 99 43 3d b8 b0 90 bd 57 e8 b7 3d 00 0b 05 bb
       0.04775334 -0.070649564 0.08979862 -0.0020300746
000010 4d 0f c9 bd f0 f0 8e bd 42 14 76 3d dd ba c8 bd
       -0.098173715 -0.06979549 0.060077913 -0.09801266
000020 a3 8a c0 3d 72 4f 2e 3d 30 32 90 bb a0 cc 59 bb
       0.09401443 0.042556234 -0.004400514 -0.0033233538
000030 91 5a a3 3d 62 37 60 3d 6a b6 0d 3d 63 6c 51 bd
       0.079762585 0.054740317 0.03459779 -0.051128756
000040 d2 02 67 3d 36 fc 99 bd c0 6c a4 bd b3 5a 68 bd
       0.056399174 -0.075188085 -0.08028555 -0.056727123
000050 07 39 b2 3d d6 52 2d 3d 90 65 79 bd fd e6 92 bd
       0.08702283 0.042315327 -0.060887873 -0.07172964
000060 50 e1 79 bd 74 26 dd bc 6d 4b a4 3d 0a 5b b2 bd
       -0.06100589 -0.026995875 0.08022199 -0.087087706
000070 00 0c 33 bc 9d a6 75 bd f8 69 8c bd 76 af 15 bd
       -0.010928154 -0.059973348 -0.068561494 -0.036544286
000080 86 66 2e 3d 76 f7 02 bd 90 72 5f 3c 51 0b 85 3d
       0.042578243 -0.03197428 0.013638154 0.06496299
000090 79 19 b0 3d 00 ec c4 b8 ba 59 11 bd d3 cd 51 bd
       0.085986085 -9.389967e-05 -0.03548596 -0.05122168
0000a0 c3 8e 60 bd b4 11 b9 bc 96 c2 7b 3d 07 df 57 bd
       -0.05482365 -0.02259145 0.06146487 -0.05270293
0000b0 20 af d5 bc 62 63 a7 bd 35 10 af 3d f4 98 a3 bc
       -0.026084483 -0.08173253 0.08548013 -0.019970395
0000c0 ad e0 8c bd 68 be 55 3c d0 bc 50 3c 39 e7 a1 3d
       -0.06878791 0.013045885 0.012740329 0.0790543
0000d0 64 23 09 bd 0b 49 a1 bd 0a ca b4 bd ad 76 b2 3d
       -0.033481017 -0.0787526 -0.088275984 0.08714042
0000e0 7f d6 b6 3d a0 68 00 3b 90 11 54 3c 8a 21 05 3d
       0.08927631 0.0019593611 0.01294364 0.03250269
0000f0 d8 76 81 3c c0 93 01 3b 94 98 84 bc 63 d2 77 bd
       0.01580374 0.0019771904 -0.016186036 -0.060503375
000100 78 c6 c3 3c 47 78 96 3d 22 96 5f 3d f4 40 e9 bc
       0.023898348 0.0734716 0.054586537 -0.028473355
000110 7f e0 c7 bd e4 59 19 bd 59 33 ab 3d 1c c7 e7 3c
       -0.09759616 -0.037439242 0.08359403 0.028293185
000120 d0 1e 4f bd 7f e3 af bd cc 63 a5 3c c2 32 6f 3d
       -0.050566494 -0.08588313 0.020189188 0.058398016
000130 e3 74 c5 3d e3 d2 c3 bd f2 a4 1d 3d 92 9a 93 bd
       0.09641435 -0.09561708 0.038487382 -0.07207216
000140 e9 12 a1 3d ef 25 b5 bd 27 b2 39 bd ec 8a d9 3c
       0.07864935 -0.08845126 -0.045335915 0.0265555
000150 4b 02 c2 3d 94 77 f1 bc 10 22 52 3c ec 78 14 bd
       0.094730936 -0.029475965 0.012825504 -0.036248133
000160 58 a0 25 bc 98 ca 0f 3c 50 9f 67 bc 36 1d 18 bd
       -0.01010903 0.008776329 -0.014137104 -0.037137233
000170 2a d9 a6 bd 18 be 25 3c aa a2 17 bd 20 f3 bf 3b
       -0.081468895 0.010116123 -0.037020363 0.00585784
000180 45 a0 8e bd 81 4f c0 3d 2b bc 94 bd b4 59 8b bd
       -0.06964163 0.09390164 -0.07262453 -0.06804219

gc2.weight f4 [100, 200]
000000 fa 85 69 3d 1c 02 30 3d b0 ee 9a 3c e6 1d 3c bd
       0.057012536 0.04297076 0.018912643 -0.04592695
000010 64 c6 4b 3d a9 c7 8f 3d 84 95 3a 3d f8 5d 85 bd
       0.049749747 0.07020504 0.045552745 -0.06512064
000020 1a 34 2f bd e0 2f e2 3b ca 75 2d 3d ac 5b ac 3c
       -0.042774297 0.00690268 0.04234866 0.021039806
000030 62 da 79 3d de 43 58 bd 8a 29 64 3d 7e cb 8e bc
       0.06099928 -0.0527991 0.055703677 -0.017431017
000040 48 51 41 bd 0b 0e 88 3d 06 19 c1 bc 98 ba 18 3d
       -0.047196656 0.066433035 -0.023571502 0.037287325
000050 6e 74 ea bc e0 21 0b bb 20 dc 0d 3b 70 fb c9 3b
       -0.028619971 -0.0021229908 0.0021646097 0.006164007
000060 4a b3 2d 3d 49 0b 8e bd b4 d8 ba bc 5f d5 40 bd
       0.04240731 -0.06935746 -0.02280841 -0.047078487
000070 b0 bc 29 3d 3a 07 64 3d 04 3b af 3c c8 db 6f 3c
       0.041439712 0.055670954 0.021390446 0.014639802
000080 60 48 e3 bc cc de d5 3c c0 ea eb bb e0 58 50 3c
       -0.027744472 0.026107214 -0.0071996152 0.012716502
000090 d3 96 71 bd ab e2 8f 3d c3 8f 67 bd c4 fd bd 3c
       -0.058981728 0.07025655 -0.056533586 0.023192294
0000a0 b6 03 22 3d 7c 92 10 3d 70 d4 17 3c 88 87 87 bd
       0.03955432 0.03529595 0.009266958 -0.066176474
0000b0 48 36 26 3d 88 99 2f bd d9 9d 8b 3d e8 9b 79 bd
       0.04057911 -0.04287103 0.068172164 -0.0609397
0000c0 60 2d 3c bb 44 17 69 bd 4c 34 8d 3c 4e 9d 82 bd
       -0.002871357 -0.056906953 0.017236851 -0.0637766
0000d0 2c 75 87 bc f0 8a 89 bd 13 65 4a bd 0a df 98 bc
       -0.016535364 -0.06715953 -0.049412798 -0.01866104
0000e0 a0 b9 f8 bb 46 44 65 3d bc 78 55 3d e7 3c 6b bd
       -0.0075904876 0.055973314 0.052117094 -0.057431128
0000f0 a8 3b 35 bd 18 7e 36 bc 72 6a 50 3d 61 94 56 bd
       -0.044246346 -0.0111384615 0.050882764 -0.0523876
000100 6f c2 46 bd 3a e6 4f bd ec 07 12 3d 80 a8 67 bb
       -0.04852527 -0.05075667 0.035652086 -0.0035348237
000110 38 77 69 bc b8 8d f5 3c e4 97 aa 3c 60 01 a7 bb
       -0.014249615 0.029974803 0.02082438 -0.0050965995
000120 44 36 4a 3d 60 69 02 3b c0 da b2 bb c4 78 fe 3c
       0.049368158 0.0019899234 -0.005458206 0.031063445
000130 6a 19 95 bc 62 52 07 bd 06 84 9f bc 00 6f 19 3d
       -0.018200595 -0.03303755 -0.019472133 0.037459373
000140 b4 9a ce 3c 17 b4 88 3d 38 dc 9d 3c 32 b3 61 3d
       0.025220253 0.066749744 0.019270048 0.055102535
000150 be 5b 6b 3d aa 66 6a 3d ca 6a ac bc 3a 4f 76 3d
       0.05746054 0.057226814 -0.021047015 0.06013415
000160 b4 d2 a8 3c 24 45 09 3d b8 f1 5d bd 64 b1 9c 3c
       0.020608284 0.033513203 -0.0541856 0.019127555
000170 7d 09 5f bd c4 71 0b 3d 50 ff 87 bd e6 e5 6c 3d
       -0.054452408 0.034044042 -0.06640494 0.057836436
000180 50 b3 85 3b d1 df 0c bd 81 e0 68 bd b0 73 5a bd
       0.0040802136 -0.034393135 -0.05685473 -0.053332984
000190 ce b1 c9 bc 7c b8 e9 3c 6a 4f 10 bd 42 90 67 bd
       -0.024620917 0.028530352 -0.035231985 -0.05653406
0001a0 8a 34 92 bc f6 98 5c 3d e4 a7 3d bd 5c 69 c9 bc
       -0.017847318 0.053856812 -0.04630269 -0.024586372
0001b0 10 89 81 bb 9d 69 83 3d 9b 44 06 bd b4 12 3a bd
       -0.0039531067 0.064166285 -0.03278027 -0.045427993
0001c0 3a 46 2c bd 92 64 67 3d 40 90 42 3c f8 9f df 3c
       -0.04205916 0.056492396 0.011875212 0.027297959
0001d0 28 b9 51 3c e0 9a b8 bb bc 7a 7a bd 28 9b 8c bd
       0.012800492 -0.005633697 -0.061152205 -0.06865531
0001e0 7e 6f 5e 3d 60 a0 1f bc 86 67 67 3d 70 ea b3 3c
       0.054305546 -0.009742826 0.056495212 0.021962374
0001f0 ed c7 8f 3d b4 ff a2 3c b7 7d 86 3d 84 82 49 3d
       0.07020555 0.01989732 0.06566947 0.049196735
000200 c8 12 bc 3c cd 99 07 bd 36 a7 6f 3d 06 fc 14 bd
       0.022958174 -0.03310566 0.058509074 -0.03637316
000210 ca 8c 7a 3d 40 d8 9e 3c b2 36 24 3d 5e 76 bf bc
       0.061169423 0.019390225 0.040091224 -0.023371872
000220 48 11 48 3d 02 ec 29 bd b9 44 4c bd 18 f7 8f bd
       0.048844606 -0.04148484 -0.049870227 -0.07029551
000230 40 1a b2 3a 60 3c 85 bd d2 54 88 bd c0 f2 f5 bb
       0.0013588145 -0.06505656 -0.06656803 -0.0075057447
000240 5a 38 eb bc 60 09 b9 3c d1 63 81 3d 6c 55 15 bd
       -0.028713394 0.022587478 0.063178666 -0.036458418
000250 c7 d6 82 bd 82 bb 59 3d f4 00 0d bd e8 1e 14 3c
       -0.06388622 0.053157337 -0.034424737 0.009040572
000260 b4 f7 fb 3c e4 92 94 3c 14 3b 0b 3d d3 48 58 bd
       0.030757762 0.01813645 0.03399189 -0.052803826
000270 5e fc 8c bd 39 cf 8d 3d 5c ff 85 bd 00 14 c2 bb
       -0.06884073 0.0692429 -0.065428466 -0.0059227943
000280 d2 b3 36 3d ee 80 85 bd 58 97 71 3c a4 48 00 bd
       0.044605084 -0.06518732 0.014745556 -0.031319275
000290 60 33 84 bd 3e ce cd bc 2a c4 7d bd fa 9f 69 3d
       -0.064551115 -0.025122758 -0.061954655 0.05703733
0002a0 c8 de fd 3c c0 c9 2b bd 60 09 af bb c8 99 87 bc
       0.03099002 -0.04194045 -0.0053416938 -0.01655282
0002b0 0c cd 8c 3c 07 3e 5e bd f0 54 ec bb 58 73 68 3c
       0.017187618 -0.054258373 -0.007212274 0.014187656
0002c0 fd 8e 80 3d 54 da 22 bd c3 01 82 bd c8 98 51 3c
       0.06277273 -0.039758995 -0.06347992 0.012792774
0002d0 ee 59 86 bd a0 23 ec bc ce 7a 3a 3d 00 d7 42 3d
       -0.065601215 -0.028825581 0.045527272 0.04756832
0002e0 dc 7d 2c 3d 92 95 18 3d 98 43 fa 3c c0 11 70 3b
       0.042112216 0.037252016 0.03054981 0.0036631674
0002f0 00 1d 02 3d aa 57 7b 3d 00 29 c5 bb ee 54 11 bd
       0.031765938 0.0613629 -0.0060168505 -0.035481386
000300 c9 ef 87 3d f8 b0 ee 3c b8 0e c8 bc 5c d4 c6 3c
       0.06637532 0.02913712 -0.024421081 0.024271183
000310 04 af 9d 3c 2a d4 63 3d fe 7d 37 bd c8 19 08 3c
       0.019248493 0.055622257 -0.04479789 0.008306928
000320 4a 8a 5e 3d e7 91 6e bd a6 d1 0e 3d 02 ad 36 3d
       0.0543311 -0.058244612 0.034867905 0.044598587
000330 d2 34 8d bc a0 54 da 3b 34 68 b2 3c 96 f9 cc bc
       -0.0172371 0.00666292 0.021778204 -0.025021356
000340 88 f5 07 bd da b4 13 3d 19 52 34 bd 86 31 4b 3d
       -0.03319314 0.036061145 -0.044023607 0.049607776
000350 98 9a cd 3c 4c 8e 08 bc 58 c9 57 3d 98 e8 f6 3c
       0.02509813 -0.0083347075 0.05268225 0.030140206
000360 42 c4 80 bc 36 c2 0e 3d db 0f 83 bd 80 bf 63 ba
       -0.015718583 0.034853183 -0.063995086 -0.00086878985
000370 5c 97 4c bd 80 4a 91 3b 30 39 90 bd de 35 5e 3d
       -0.049949035 0.00443393 -0.07042158 0.05425059
000380 28 57 26 bd 9e f3 55 bd 88 e9 21 3c 08 ee 02 3d
       -0.040610462 -0.052234285 0.009882338 0.031965286
000390 38 58 99 bc 80 f6 cd bb 79 36 5a bd 52 4b 47 bd
       -0.018718824 -0.0062854886 -0.053274605 -0.048655815
0003a0 77 43 84 3d ce c4 61 3d 55 8c 90 3d fa 04 7c 3d
       0.064581804 0.05511933 0.07058016 0.061528184
0003b0 88 ec 4c 3c 70 e8 57 3d bc 6b 8c bc 9e d3 7e 3d
       0.012507565 0.052711904 -0.017141216 0.062213533
0003c0 d6 76 8f bd 60 80 f1 3c a9 0b 8a bd c7 9f 84 3d
       -0.07005088 0.02948016 -0.06740505 0.064757876
0003d0 a7 9f 67 bd 60 ec 53 bd 40 18 d3 ba 17 39 16 bd
       -0.05654874 -0.051739097 -0.001610525 -0.03667554
0003e0 b4 5e 49 bc 30 1d 5b 3c 84 45 f8 bc 5f 83 84 3d
       -0.012290645 0.013373658 -0.030306585 0.064703695
0003f0 02 cd f2 bc a5 d9 8f 3d 20 df f4 3c 48 d5 2b 3d
       -0.029638771 0.07023934 0.02989155 0.041951448

gc3.weight f4 [200, 1]
000000 00 f2 58 bb 8c 70 6d bf 24 9b 63 bf f8 d3 e5 3e
       -0.0033103228 -0.9274986 -0.889086 0.44888282
000010 78 dc 27 3f 22 ed 57 bf 24 3f d4 be 60 f3 76 3d
       0.65570784 -0.8434621 -0.41454422 0.060290694
000020 58 7b d0 be f4 23 2a bf 10 19 6e 3f 8c 38 6c 3f
       -0.40719104 -0.6646111 0.9300699 0.92273784
000030 0e 62 20 bf 44 1d 0f 3f b2 31 03 bf a4 26 18 bf
       -0.6264962 0.5590403 -0.51247704 -0.5943396
000040 de a2 73 bf 50 a4 eb be d0 ec 05 3f 80 fb b8 3d
       -0.9517039 -0.46023798 0.5231447 0.09032345
000050 e0 5e 27 3f 70 d8 48 be a0 a1 1e 3e 86 11 31 bf
       0.6537914 -0.19613814 0.15491343 -0.69167364
000060 0c 18 b8 3e a8 57 ac 3e 54 5c a0 3e f0 ce 31 be
       0.35955846 0.33660626 0.3132044 -0.17364097
000070 f6 78 54 bf 02 25 52 bf 52 c9 10 bf 80 cd 04 3f
       -0.8299707 -0.8208772 -0.5655719 0.5187607
000080 00 e3 22 3d 98 ae 04 be a0 4b 73 3f fc d4 08 bf
       0.039767265 -0.12957227 0.9503727 -0.5344999
000090 a4 be 7b bf a8 cf 21 3f e4 f8 f2 be 36 54 45 bf
       -0.9833777 0.63207483 -0.47455513 -0.7708162
0000a0 08 39 17 3f c0 fb 67 be e4 cd 09 3f 9c 09 96 be
       0.590714 -0.22654629 0.5382979 -0.29304206
0000b0 ca c7 51 bf e8 da 43 3e cc 6b fa be ac 5b ad 3e
       -0.8194548 0.19126475 -0.48910367 0.33859003
0000c0 04 da 45 3f 68 df c6 be 00 a0 08 bb 48 0d 56 be
       0.7728579 -0.3884232 -0.002084732 -0.20903504
0000d0 00 e7 fd 3b 80 82 8b 3d 7c fa c9 3e 20 ba 43 bf
       0.0077484846 0.06812 0.39448917 -0.7645588
0000e0 66 d9 5f bf 38 ab dc be 00 dc f2 be d8 83 40 bf
       -0.874411 -0.4309938 -0.47433472 -0.7520118
0000f0 54 bd 52 bf d2 05 02 3f 30 f9 93 3e cc 83 36 bf
       -0.8232014 0.5079013 0.28901052 -0.71294856
000100 00 7a c2 bb a8 e2 38 3f 08 dc 49 3e 4c 72 55 3f
       -0.0059349537 0.7222085 0.19712842 0.8337753
000110 b0 53 70 bf c0 76 18 3f f0 3e 92 3d ec c9 0f bf
       -0.93877697 0.595562 0.071409106 -0.56167483
000120 04 a4 08 3f 56 07 4d bf a2 4f 16 bf f6 e8 29 bf
       0.5337527 -0.8008932 -0.5871526 -0.66371095
000130 b8 5c 3d be 6c 1b d0 3e 78 b8 9a 3e 5c 63 fc 3e
       -0.184924 0.4064592 0.30218863 0.49294555
000140 00 1a c8 3b e0 f8 7f 3d 1c ba 48 bf c4 48 40 bf
       0.006106615 0.062493205 -0.7840898 -0.7511103
000150 d0 10 68 be e4 70 0a bf 18 36 5b 3e cc 67 7e bf
       -0.22662663 -0.5407851 0.21407354 -0.9937713
000160 20 90 28 be 8c ec b7 3e 54 6f e4 3e 70 da b9 be
       -0.1646123 0.35922658 0.44616187 -0.36299467
000170 e0 83 38 3f 50 c3 7b be 8e a8 5c 3f 1c 11 ec be
       0.72076225 -0.24586225 0.86194694 -0.46106803
000180 30 ad 88 be e8 96 b7 be 40 e5 eb 3e 00 20 c7 3d
       -0.26694632 -0.3585732 0.4607334 0.097229004
000190 c0 84 1d 3f 84 23 85 be 54 12 fa be 2e 13 7c bf
       0.61530685 -0.2600366 -0.48842108 -0.98466766
0001a0 48 e5 44 3e 10 e1 69 3f 40 96 3a bd 66 fe 29 bf
       0.19228089 0.91359043 -0.045553446 -0.66403806
0001b0 9c de e9 3e 40 5f 60 3e 98 5f 2e 3e 54 33 4b 3f
       0.4567765 0.21911335 0.17028654 0.79375196
0001c0 ea e1 28 3f 48 85 30 be 88 d8 0c 3f 68 9f 0c bf
       0.6596972 -0.17238343 0.550179 -0.54930735
0001d0 f0 4a 18 3f 68 80 5c 3f 14 55 9e be dc 2c 01 3f
       0.59489346 0.8613343 -0.30924284 0.50459075
0001e0 44 80 31 bf 20 2a 4d bf 80 44 70 3d 64 d7 4c bf
       -0.6933634 -0.801424 0.058659077 -0.8001616
0001f0 82 23 5d bf d0 37 ac 3d b8 a8 8c 3e f8 7b 57 3e
       -0.86382306 0.08409083 0.27472472 0.21043384
000200 6c b2 01 3f c8 33 52 3e 40 4d 58 bd e0 03 6e 3e
       0.50662875 0.20527565 -0.052808046 0.23243666
000210 ac a9 78 3f 56 c4 2a bf ec 98 25 bf 12 7f 1a 3f
       0.971339 -0.66705835 -0.64686465 0.60350144
000220 9a 1d 49 bf 36 cf 72 bf 2a 88 20 bf 00 2c a8 3b
       -0.78560793 -0.9484743 -0.6270777 0.0051321983
000230 18 f0 56 3e ec a9 8a 3e b4 b4 3f 3f f2 21 24 3f
       0.20990026 0.27082765 0.74885106 0.64114296
000240 10 bf 20 3e 00 a2 41 bf e0 c2 b8 bd 04 c2 43 bf
       0.15697885 -0.7563782 -0.090215445 -0.7646792
000250 1c 99 53 bf a8 01 f8 3e 00 fd 0c bc e8 f9 ab 3e
       -0.826555 0.48438764 -0.008605242 0.335891
000260 10 88 81 3d b6 50 74 3f 40 8a d1 bc ea ed 4d bf
       0.0632478 0.95435655 -0.025578618 -0.80441153
000270 1c 0c da be 78 5c b2 be e4 02 79 3f b2 ed 65 bf
       -0.42587364 -0.34836173 0.97270036 -0.8981582
000280 30 35 d7 3d d6 57 04 bf 08 ee 12 3f fc 8b 72 3f
       0.105081916 -0.51696527 0.57394457 0.9474485
000290 80 3d 98 3e e0 53 6b 3d ec 02 05 bf c4 4c 42 3f
       0.2973442 0.057453036 -0.51957583 0.75898385
0002a0 f4 0e ee be 6a 2b 6f bf 34 01 3e 3f 60 5e c5 bd
       -0.46495783 -0.9342562 0.74220586 -0.09637141
0002b0 24 76 4d bf 92 d1 35 3f 58 09 18 be a0 2a 9b 3e
       -0.80258393 0.71022904 -0.14847314 0.30305958
0002c0 fc 95 dc 3e a0 9f 5e bf 96 44 39 bf 28 27 a6 3e
       0.4308318 -0.8696232 -0.7237028 0.3245175
0002d0 88 7f 2b bf 00 e8 87 be 00 ce 0c bd 44 22 9a 3e
       -0.6699147 -0.2654419 -0.034376144 0.30104268
0002e0 a4 fc df be d0 57 16 3f f6 2e 5f bf b6 bf 7a bf
       -0.43747437 0.5872774 -0.8718103 -0.9794878
0002f0 10 aa 85 3e 50 98 3f 3e 00 a6 60 bb f2 99 46 bf
       0.2610631 0.18710446 -0.0034278631 -0.7757865
000300 0a 0c 23 bf 66 86 30 bf 86 a4 5f 3f 60 b7 8b bd
       -0.63690245 -0.68955076 0.8736042 -0.068220854
000310 92 bc 4e 3f ee b8 28 3f 68 0e 04 be ca 91 1c 3f
       0.80756485 0.6590718 -0.1289612 0.61159956
